Yolo_Fastest_series_with_MOT_TF_Keras/pretrained_weights/fastest_coco_relu6.tflite (tflite, 592824 bytes, 85 tensors)

model/quant_conv2d/Conv2D;model/quant_conv2d/LastValueQuant/FakeQuantWithMinMaxVarsPerChannel i1 [8, 3, 3, 3]
000000 cd c4 e3 0f 09 00 1c 36 22 90 81 ce 16 0e 06 59
       -51 -60 -29 15 9 0 28 54 34 -112 -127 -50 22 14 6 89
000010 65 25 d3 c9 ec 13 09 0a 2b 2b 16 2b 37 18 65 7f
       101 37 -45 -55 -20 19 9 10 43 43 22 43 55 24 101 127
000020 2d 16 23 10 fb f5 ff 04 01 f6 01 fe fe d7 cb f3
       45 22 35 16 -5 -11 -1 4 1 -10 1 -2 -2 -41 -53 -13
000030 ad 96 d7 d8 c9 f4 d2 34 12 b7 48 0d c4 2d 11 c7
       -83 -106 -41 -40 -55 -12 -46 52 18 -73 72 13 -60 45 17 -57
000040 24 13 96 3e 28 b1 36 1d c4 21 2a 81 25 2b ad 2d
       36 19 -106 62 40 -79 54 29 -60 33 42 -127 37 43 -83 45
000050 2e e9 e3 04 fc 05 f7 15 54 d2 b8 c7 ef f0 fa fc
       46 -23 -29 4 -4 5 -9 21 84 -46 -72 -57 -17 -16 -6 -4
000060 5f 7f f7 0d 1c f8 f8 06 fa 1d 37 d5 0e 16 f9 07
       95 127 -9 13 28 -8 -8 6 -6 29 55 -43 14 22 -7 7
000070 01 05 e6 d4 0d 21 19 0f f9 f5 0e 8a 81 d6 0f fe
       1 5 -26 -44 13 33 25 15 -7 -11 14 -118 -127 -42 15 -2
000080 09 08 fb 18 ec cf 0b 11 d9 2a 24 b7 08 50 cf ff
       9 8 -5 24 -20 -49 11 17 -39 42 36 -73 8 80 -49 -1
000090 18 ba 0c 57 88 e6 62 81 f9 34 d9 0d 78 c2 e9 72
       24 -70 12 87 -120 -26 98 -127 -7 52 -39 13 120 -62 -23 114
0000a0 ba fb fd af 37 41 12 17 fe b9 3a 16 a7 39 55 02
       -70 -5 -3 -81 55 65 18 23 -2 -71 58 22 -89 57 85 2
0000b0 20 37 cc 49 df 87 53 f5 a3 1e e4 81 5d f8 b9 31
       32 55 -52 73 -33 -121 83 -11 -93 30 -28 -127 93 -8 -71 49
0000c0 d4 d2 09 da ba 3c 19 fb 18 26 4c 08 fb fc 1f 03
       -44 -46 9 -38 -70 60 25 -5 24 38 76 8 -5 -4 31 3
0000d0 d6 1f 7f 6f 15 03 f7 15
       -42 31 127 111 21 3 -9 21

model/quant_conv2d_1/Conv2D;model/quant_conv2d_1/LastValueQuant/FakeQuantWithMinMaxVarsPerChannel i1 [8, 1, 1, 8]
000000 03 02 5e d9 05 0f 4e 7f fa fa 0b ea d9 12 f5 00
       3 2 94 -39 5 15 78 127 -6 -6 11 -22 -39 18 -11 0
000010 13 e3 fc 77 cf 1c e8 7f 00 f8 0a ed 0e f3 e9 f6
       19 -29 -4 119 -49 28 -24 127 0 -8 10 -19 14 -13 -23 -10
000020 01 01 bb f4 02 7f 0c f6 ff fc e6 e1 81 e6 fc dc
       1 1 -69 -12 2 127 12 -10 -1 -4 -26 -31 -127 -26 -4 -36
000030 2d 33 11 71 ce f2 30 81 fc f7 ff ef 18 eb fe f0
       45 51 17 113 -50 -14 48 -127 -4 -9 -1 -17 24 -21 -2 -16

model/quant_conv_dw_1/depthwise;model/quant_conv_dw_1/LastValueQuant/FakeQuantWithMinMaxVarsPerChannel i1 [1, 3, 3, 8]
000000 00 f8 f4 00 d6 fa 00 02 dd f1 07 fe da 03 c8 03
       0 -8 -12 0 -42 -6 0 2 -35 -15 7 -2 -38 3 -56 3
000010 f6 eb fe fe 07 06 f9 01 da f4 ff 02 59 ef 08 00
       -10 -21 -2 -2 7 6 -7 1 -38 -12 -1 2 89 -17 8 0
000020 7f f1 86 f9 5b fd 61 fc 0b f0 0f fd e5 02 d3 fe
       127 -15 -122 -7 91 -3 97 -4 11 -16 15 -3 -27 2 -45 -2
000030 ed fb fa 01 f5 ef ff ff 1f f4 0b fd ea f7 0e fe
       -19 -5 -6 1 -11 -17 -1 -1 31 -12 11 -3 -22 -9 14 -2
000040 e2 f4 13 fe ff f6 02 fc
       -30 -12 19 -2 -1 -10 2 -4

model/quant_conv2d_2/Conv2D;model/quant_conv2d_2/LastValueQuant/FakeQuantWithMinMaxVarsPerChannel i1 [4, 1, 1, 8]
000000 81 00 08 00 05 00 ff 00 ec 00 81 00 fe 00 13 00
       -127 0 8 0 5 0 -1 0 -20 0 -127 0 -2 0 19 0
000010 0a 00 fd 00 81 00 07 00 ff 00 fd 00 ff 00 7f 00
       10 0 -3 0 -127 0 7 0 -1 0 -3 0 -1 0 127 0

model/quant_conv2d_3/Conv2D;model/quant_conv2d_3/LastValueQuant/FakeQuantWithMinMaxVarsPerChannel i1 [8, 1, 1, 4]
000000 2f 81 a3 af 81 00 0c 07 03 0b f8 ff 1b fe 7f 04
       47 -127 -93 -81 -127 0 12 7 3 11 -8 -1 27 -2 127 4
000010 7f b0 cd e5 e4 fa 81 04 e1 7f 0f 42 3f 81 b6 99
       127 -80 -51 -27 -28 -6 -127 4 -31 127 15 66 63 -127 -74 -103

model/quant_conv_dw_2/depthwise;model/quant_conv_dw_2/LastValueQuant/FakeQuantWithMinMaxVarsPerChannel i1 [1, 3, 3, 8]
000000 02 0b d1 08 09 e6 ea c2 01 8c c9 f2 0a ef f3 e2
       2 11 -47 8 9 -26 -22 -62 1 -116 -55 -14 10 -17 -13 -30
000010 ea 75 be fe fc d6 da ab 02 1e fa d5 18 f9 1e eb
       -22 117 -66 -2 -4 -42 -38 -85 2 30 -6 -43 24 -7 30 -21
000020 fb 16 eb c4 61 f8 41 2c f5 a1 c5 7f 1b f6 ec eb
       -5 22 -21 -60 97 -8 65 44 -11 -95 -59 127 27 -10 -20 -21
000030 f7 e4 09 15 07 dc f3 e0 f3 53 fe 01 14 f1 2e 00
       -9 -28 9 21 7 -36 -13 -32 -13 83 -2 1 20 -15 46 0
000040 ee e7 f6 e5 fe dc e6 d3
       -18 -25 -10 -27 -2 -36 -26 -45

model/quant_conv2d_4/Conv2D;model/quant_conv2d_4/LastValueQuant/FakeQuantWithMinMaxVarsPerChannel i1 [4, 1, 1, 8]
000000 00 f2 00 95 7f 39 23 70 00 2e 00 ff d0 04 c9 81
       0 -14 0 -107 127 57 35 112 0 46 0 -1 -48 4 -55 -127
000010 00 02 00 08 dd 7f fa 3b ff 81 00 22 f9 03 c3 b7
       0 2 0 8 -35 127 -6 59 -1 -127 0 34 -7 3 -61 -73

model/quant_conv2d_5/Conv2D;model/quant_conv2d_5/LastValueQuant/FakeQuantWithMinMaxVarsPerChannel i1 [24, 1, 1, 4]
000000 03 7f 0a 2c f7 7f db f7 81 e9 7c f7 09 02 05 81
       3 127 10 44 -9 127 -37 -9 -127 -23 124 -9 9 2 5 -127
000010 34 81 fb e0 34 81 04 0b 81 2c 12 44 7f 3e 14 15
       52 -127 -5 -32 52 -127 4 11 -127 44 18 68 127 62 20 21
000020 0d 20 e1 23 28 81 0f 2f 0d 24 0e f5 e2 7f ef 0e
       13 32 -31 35 40 -127 15 47 13 36 14 -11 -30 127 -17 14
000030 d5 7f f9 ef 81 5c 11 40 f9 01 81 04 07 eb 05 7f
       -43 127 -7 -17 -127 92 17 64 -7 1 -127 4 7 -21 5 127
000040 84 81 0e b8 7f eb fc f7 1f d8 e9 fe 81 75 17 5e
       -124 -127 14 -72 127 -21 -4 -9 31 -40 -23 -2 -127 117 23 94
000050 ee 7f 0e ab 2c 81 08 0b fd 05 fe 7f 7f fa 17 07
       -18 127 14 -85 44 -127 8 11 -3 5 -2 127 127 -6 23 7

model/quant_conv_dw_3/depthwise;model/quant_conv_dw_3/LastValueQuant/FakeQuantWithMinMaxVarsPerChannel i1 [1, 3, 3, 24]
000000 1f 0b 02 0f 36 23 f4 10 f8 ed ff 01 20 0b e3 fd
       31 11 2 15 54 35 -12 16 -8 -19 -1 1 32 11 -29 -3
000010 0b f8 02 fe f0 22 0f ed c5 39 1a 17 0b 79 f5 23
       11 -8 2 -2 -16 34 15 -19 -59 57 26 23 11 121 -11 35
000020 ff 21 03 02 36 18 14 0b 16 21 14 ee f3 de 1a 3e
       -1 33 3 2 54 24 20 11 22 33 20 -18 -13 -34 26 62
000030 14 52 1c 09 d4 20 01 10 00 16 00 fc b8 0e 31 28
       20 82 28 9 -44 32 1 16 0 22 0 -4 -72 14 49 40
000040 0d e2 08 01 0e fd e4 d7 45 e2 e4 1e 65 30 f2 14
       13 -30 8 1 14 -3 -28 -41 69 -30 -28 30 101 48 -14 20
000050 f2 15 00 f4 36 24 d0 04 24 f9 f7 28 26 07 1e d9
       -14 21 0 -12 54 36 -48 4 36 -7 -9 40 38 7 30 -39
000060 9f a1 ae 44 ee f2 fd 30 03 1c 01 4e 81 50 24 29
       -97 -95 -82 68 -18 -14 -3 48 3 28 1 78 -127 80 36 41
000070 43 33 0f 58 74 a3 2b 62 30 92 b8 34 ac c1 04 1b
       67 51 15 88 116 -93 43 98 48 -110 -72 52 -84 -63 4 27
000080 07 20 05 d4 33 2d 5f 31 24 db 09 34 31 4a 0a c0
       7 32 5 -44 51 45 95 49 36 -37 9 52 49 74 10 -64
000090 27 08 15 0c 33 d3 f4 05 f0 13 08 e5 d6 1e e0 03
       39 8 21 12 51 -45 -12 5 -16 19 8 -27 -42 30 -32 3
0000a0 1a 03 f2 da dd cb 1a f9 cd 2e 3e 2a ec 98 ff 16
       26 3 -14 -38 -35 -53 26 -7 -51 46 62 42 -20 -104 -1 22
0000b0 fc 0a 07 5f 0c 3c 14 23 30 0b 08 bb a5 7a 32 21
       -4 10 7 95 12 60 20 35 48 11 8 -69 -91 122 50 33
0000c0 00 22 2e 29 cd f7 06 0c fb 1b 05 a8 24 1f 3e 01
       0 34 46 41 -51 -9 6 12 -5 27 5 -88 36 31 62 1
0000d0 1a ec fb cc c4 c9 3a eb
       26 -20 -5 -52 -60 -55 58 -21

model/quant_conv2d_6/Conv2D;model/quant_conv2d_6/LastValueQuant/FakeQuantWithMinMaxVarsPerChannel i1 [8, 1, 1, 24]
000000 7f 5e 43 c4 c9 ad 00 2d 00 1a 00 4d b0 f4 1e 07
       127 94 67 -60 -55 -83 0 45 0 26 0 77 -80 -12 30 7
000010 11 94 00 31 46 ba ff 6d 21 1f 23 7f 30 ec 00 e9
       17 -108 0 49 70 -70 -1 109 33 31 35 127 48 -20 0 -23
000020 00 e5 00 eb 95 e9 f7 02 f8 df 00 2c 14 85 3c 25
       0 -27 0 -21 -107 -23 -9 2 -8 -33 0 44 20 -123 60 37
000030 2e 10 f9 81 40 19 00 00 00 21 00 38 09 00 fb 98
       46 16 -7 -127 64 25 0 0 0 33 0 56 9 0 -5 -104
000040 fe ff 00 ec 1e 0a 9b 0c 03 03 00 01 04 01 00 f9
       -2 -1 0 -20 30 10 -101 12 3 3 0 1 4 1 0 -7
000050 00 eb 00 02 fe 60 7f fd d9 05 00 fe 00 ff 00 fd
       0 -21 0 2 -2 96 127 -3 -39 5 0 -2 0 -1 0 -3
000060 ff fd fc 07 f9 ff 00 49 00 fa 00 fe fa b8 04 f0
       -1 -3 -4 7 -7 -1 0 73 0 -6 0 -2 -6 -72 4 -16
000070 81 fc 00 fe fe fa fc ff 21 89 b2 f9 23 81 00 0c
       -127 -4 0 -2 -2 -6 -4 -1 33 -119 -78 -7 35 -127 0 12
000080 00 db 00 08 a3 0e 05 ff 15 f0 00 97 92 c2 01 12
       0 -37 0 8 -93 14 5 -1 21 -16 0 -105 -110 -62 1 18
000090 fd fb fd fd 05 ff 00 df 00 13 00 01 02 81 67 02
       -3 -5 -3 -3 5 -1 0 -33 0 19 0 1 2 -127 103 2
0000a0 42 fe 00 03 00 02 01 01 81 0f 09 ef 9c 0d 00 06
       66 -2 0 3 0 2 1 1 -127 15 9 -17 -100 13 0 6
0000b0 00 f2 00 8a c9 02 05 02 08 5a 00 1e 23 a2 e2 9e
       0 -14 0 -118 -55 2 5 2 8 90 0 30 35 -94 -30 -98

model/quant_conv2d_7/Conv2D;model/quant_conv2d_7/LastValueQuant/FakeQuantWithMinMaxVarsPerChannel i1 [32, 1, 1, 8]
000000 da 1a 10 21 81 06 31 fd a1 28 49 04 fa 81 fc ca
       -38 26 16 33 -127 6 49 -3 -95 40 73 4 -6 -127 -4 -54
000010 09 fe f3 7c 6c f9 7f 04 e9 0a d4 81 30 e7 9c 08
       9 -2 -13 124 108 -7 127 4 -23 10 -44 -127 48 -25 -100 8
000020 fd e2 ea 3d 81 08 49 10 7f b9 bb f5 fc e6 f8 1b
       -3 -30 -22 61 -127 8 73 16 127 -71 -69 -11 -4 -26 -8 27
000030 08 81 73 ef 1f 07 06 4c 14 ee f2 2c 7f 03 dd fb
       8 -127 115 -17 31 7 6 76 20 -18 -14 44 127 3 -35 -5
000040 ee cd 33 d2 f3 68 43 7f c9 08 00 6b e9 09 81 0e
       -18 -51 51 -46 -13 104 67 127 -55 8 0 107 -23 9 -127 14
000050 ce 3f 1e c5 10 0f 7f e0 01 7f 85 1e 00 cc 0f b7
       -50 63 30 -59 16 15 127 -32 1 127 -123 30 0 -52 15 -73
000060 7f 8c b7 f1 f6 2c fd 3e a2 40 7f eb 03 df 22 0b
       127 -116 -73 -15 -10 44 -3 62 -94 64 127 -21 3 -33 34 11
000070 08 ec f9 59 58 00 7f f8 18 07 ec 81 f3 7e 78 11
       8 -20 -7 89 88 0 127 -8 24 7 -20 -127 -13 126 120 17
000080 fb 03 0a ca 81 03 b6 04 00 fd 01 4b 7f fb 22 fb
       -5 3 10 -54 -127 3 -74 4 0 -3 1 75 127 -5 34 -5
000090 f7 04 03 dc 81 fc ba fa 12 e5 05 01 fc 0c ff 46
       -9 4 3 -36 -127 -4 -70 -6 18 -27 5 1 -4 12 -1 70
0000a0 53 5a 3e fb fa 3b ee 81 f2 05 c7 fa 04 0b fe 7f
       83 90 62 -5 -6 59 -18 -127 -14 5 -57 -6 4 11 -2 127
0000b0 03 05 f7 da 7f 04 cb f2 fd e7 f4 01 08 f3 fc 7f
       3 5 -9 -38 127 4 -53 -14 -3 -25 -12 1 8 -13 -4 127
0000c0 f7 f7 cd 7f de db 94 f6 05 e8 0b f3 fa 81 03 f4
       -9 -9 -51 127 -34 -37 -108 -10 5 -24 11 -13 -6 -127 3 -12
0000d0 e9 0a 10 f7 ca ef 81 0c e4 03 b0 f3 16 7f fd 4c
       -23 10 16 -9 -54 -17 -127 12 -28 3 -80 -13 22 127 -3 76
0000e0 81 f4 5a 0a 04 9d 01 b4 e7 f3 22 03 12 7f 08 e3
       -127 -12 90 10 4 -99 1 -76 -25 -13 34 3 18 127 8 -29
0000f0 09 69 81 fb 03 e5 f1 0c 01 06 0c 81 0a f9 b2 fc
       9 105 -127 -5 3 -27 -15 12 1 6 12 -127 10 -7 -78 -4

model/quant_conv_dw_4/depthwise;model/quant_conv_dw_4/LastValueQuant/FakeQuantWithMinMaxVarsPerChannel i1 [1, 3, 3, 32]
000000 04 f6 15 12 ff fc ff ec f8 12 ee 1b ee 08 3a 11
       4 -10 21 18 -1 -4 -1 -20 -8 18 -18 27 -18 8 58 17
000010 f1 0a ff 04 f9 08 df 1d e6 ff 2d 2e 04 11 1e 05
       -15 10 -1 4 -7 8 -33 29 -26 -1 45 46 4 17 30 5
000020 0d c0 4c dd ef 08 e5 1b f8 6d 03 24 21 29 e2 05
       13 -64 76 -35 -17 8 -27 27 -8 109 3 36 33 41 -30 5
000030 2d 2a a2 f8 e0 02 b9 f0 8b e6 43 e5 19 1f f1 07
       45 42 -94 -8 -32 2 -71 -16 -117 -26 67 -27 25 31 -15 7
000040 e5 06 25 fa 0b 04 39 1d f8 06 1e 0c fa c7 e7 f8
       -27 6 37 -6 11 4 57 29 -8 6 30 12 -6 -57 -25 -8
000050 44 fe 15 06 f8 e6 07 20 f1 1c 00 f1 01 1c fc e8
       68 -2 21 6 -8 -26 7 32 -15 28 0 -15 1 28 -4 -24
000060 fc c5 c6 20 fc dd 38 ca 03 f4 e3 1f 02 f3 d4 f4
       -4 -59 -58 32 -4 -35 56 -54 3 -12 -29 31 2 -13 -44 -12
000070 c6 dc d0 ee f6 18 ec 1f 20 fd cd e9 11 eb 09 f2
       -58 -36 -48 -18 -10 24 -20 31 32 -3 -51 -23 17 -21 9 -14
000080 3d 39 94 ca ec d9 bb d2 35 9c ca 0c 1e f5 a5 cb
       61 57 -108 -54 -20 -39 -69 -46 53 -100 -54 12 30 -11 -91 -53
000090 b3 eb f7 f3 02 28 4d aa 44 c6 81 d6 32 b3 a7 5d
       -77 -21 -9 -13 2 40 77 -86 68 -58 -127 -42 50 -77 -89 93
0000a0 0e 17 e4 1e ef cc f3 55 02 fa 4e 08 da 1c 25 f6
       14 23 -28 30 -17 -52 -13 85 2 -6 78 8 -38 28 37 -10
0000b0 41 d3 67 13 f0 1d 37 1a f3 fb e7 31 1b e0 f3 c8
       65 -45 103 19 -16 29 55 26 -13 -5 -25 49 27 -32 -13 -56
0000c0 d9 10 1e 00 01 13 01 00 f7 fc 17 04 14 05 ee 01
       -39 16 30 0 1 19 1 0 -9 -4 23 4 20 5 -18 1
0000d0 2a fc 07 f9 f7 eb 02 15 08 1d 0a ef 09 1c fd e7
       42 -4 7 -7 -9 -21 2 21 8 29 10 -17 9 28 -3 -25
0000e0 ff 12 1c d4 e7 25 49 dd 01 fa c2 02 c3 d7 3e 01
       -1 18 28 -44 -25 37 73 -35 1 -6 -62 2 -61 -41 62 1
0000f0 ca 14 16 fe 0c 02 0d da 34 e9 38 27 16 13 d0 12
       -54 20 22 -2 12 2 13 -38 52 -23 56 39 22 19 -48 18

model/quant_conv2d_8/Conv2D;model/quant_conv2d_8/LastValueQuant/FakeQuantWithMinMaxVarsPerChannel i1 [8, 1, 1, 32]
000000 4a 81 08 1b 0d 26 a1 e5 00 c8 dd 10 c1 c1 df 07
       74 -127 8 27 13 38 -95 -27 0 -56 -35 16 -63 -63 -33 7
000010 02 3a f5 00 b6 1b 20 06 de fc 05 9f 1f 0c e3 1f
       2 58 -11 0 -74 27 32 6 -34 -4 5 -97 31 12 -29 31
000020 0d 18 30 fa 13 37 13 33 00 f5 57 8f f6 e8 b9 d3
       13 24 48 -6 19 55 19 51 0 -11 87 -113 -10 -24 -71 -45
000030 7f 0a cb 00 d3 30 cc 2a 11 41 11 d5 06 44 c5 0b
       127 10 -53 0 -45 48 -52 42 17 65 17 -43 6 68 -59 11
000040 f0 36 df 16 06 18 d5 d7 00 ef 02 4c 08 02 66 13
       -16 54 -33 22 6 24 -43 -41 0 -17 2 76 8 2 102 19
000050 81 01 72 00 c1 e8 25 23 cb e8 1c 18 a8 13 61 eb
       -127 1 114 0 -63 -24 37 35 -53 -24 28 24 -88 19 97 -21
000060 db ff 0f fc 81 09 ff 03 00 f5 dc 10 f2 ff 1a 45
       -37 -1 15 -4 -127 9 -1 3 0 -11 -36 16 -14 -1 26 69
000070 05 c5 e3 00 0d f8 c7 f8 20 fc 16 00 04 ff eb 3e
       5 -59 -29 0 13 -8 -57 -8 32 -4 22 0 4 -1 -21 62
000080 18 fd ca 08 7f e4 f5 18 00 23 2f 19 f3 ff e9 31
       24 -3 -54 8 127 -28 -11 24 0 35 47 25 -13 -1 -23 49
000090 d8 33 c5 00 fc 15 14 f4 f7 fb df e5 25 f1 ee d7
       -40 51 -59 0 -4 21 20 -12 -9 -5 -33 -27 37 -15 -18 -41
0000a0 08 bd bd 06 ee d7 0e 53 00 e5 55 27 01 f1 96 b4
       8 -67 -67 6 -18 -41 14 83 0 -27 85 39 1 -15 -106 -76
0000b0 4e f2 cf 00 ee 15 a3 18 dc 79 b2 f8 7f ce 02 1c
       78 -14 -49 0 -18 21 -93 24 -36 121 -78 -8 127 -50 2 28
0000c0 d6 fd 0d d1 86 d5 f9 c8 00 07 71 fc 44 29 36 83
       -42 -3 13 -47 -122 -43 -7 -56 0 7 113 -4 68 41 54 -125
0000d0 05 eb d1 00 07 ea 81 09 c3 d8 f5 e3 f0 14 f1 4b
       5 -21 -47 0 7 -22 -127 9 -61 -40 -11 -29 -16 20 -15 75
0000e0 fc f7 36 9b eb 17 f7 b1 00 21 ba 3d e2 e3 c6 00
       -4 -9 54 -101 -21 23 -9 -79 0 33 -70 61 -30 -29 -58 0
0000f0 fc 0c 97 00 07 7f e8 94 30 06 10 f8 59 23 fc b2
       -4 12 -105 0 7 127 -24 -108 48 6 16 -8 89 35 -4 -78

model/quant_conv2d_9/Conv2D;model/quant_conv2d_9/LastValueQuant/FakeQuantWithMinMaxVarsPerChannel i1 [32, 1, 1, 8]
000000 fb 1a de 66 9f 19 7f 4a 08 fb ea 36 c1 05 81 fc
       -5 26 -34 102 -97 25 127 74 8 -5 -22 54 -63 5 -127 -4
000010 e6 81 7f f0 10 0e 07 c9 01 05 f3 fb ad fa 81 f0
       -26 -127 127 -16 16 14 7 -55 1 5 -13 -5 -83 -6 -127 -16
000020 01 fd 08 27 7f f5 dc 04 e5 33 f6 61 db bb 81 f8
       1 -3 8 39 127 -11 -36 4 -27 51 -10 97 -37 -69 -127 -8
000030 ec 81 40 00 0f d4 fe e4 0e 02 e8 7f 49 f6 d2 0a
       -20 -127 64 0 15 -44 -2 -28 14 2 -24 127 73 -10 -46 10
000040 b6 21 f0 01 0b 9c 02 7f fd fe 00 7f fa f8 57 f9
       -74 33 -16 1 11 -100 2 127 -3 -2 0 127 -6 -8 87 -7
000050 0a 09 ab fa 0a f4 f9 7f fc ae 34 f7 06 bc ff 7f
       10 9 -85 -6 10 -12 -7 127 -4 -82 52 -9 6 -68 -1 127
000060 4e 81 68 ef 0f f8 fe eb fb 0d 09 30 cb fd 81 03
       78 -127 104 -17 15 -8 -2 -21 -5 13 9 48 -53 -3 -127 3
000070 ea 2f 81 fa 02 5e 03 20 12 f1 3a d5 2a 7f 3c 03
       -22 47 -127 -6 2 94 3 32 18 -15 58 -43 42 127 60 3
000080 41 af 7f 23 03 fe 1c e4 00 01 fa 7f de fc 5e 02
       65 -81 127 35 3 -2 28 -28 0 1 -6 127 -34 -4 94 2
000090 14 ec 15 f3 07 7f fe 3f 10 0d fd 91 fa dc 7f e5
       20 -20 21 -13 7 127 -2 63 16 13 -3 -111 -6 -36 127 -27
0000a0 d5 0e d7 ee 03 81 eb 46 f5 2c fb 8f 22 ef 7f cd
       -43 14 -41 -18 3 -127 -21 70 -11 44 -5 -113 34 -17 127 -51
0000b0 19 0a f6 e3 df 81 17 da 81 12 60 05 06 e2 06 e2
       25 10 -10 -29 -33 -127 23 -38 -127 18 96 5 6 -30 6 -30
0000c0 df 2c 01 81 d4 d7 64 e8 08 fd 01 7f 36 08 e1 f6
       -33 44 1 -127 -44 -41 100 -24 8 -3 1 127 54 8 -31 -10
0000d0 1d 93 5b d1 2e 33 ff 7f f6 21 1b 81 c1 07 6c da
       29 -109 91 -47 46 51 -1 127 -10 33 27 -127 -63 7 108 -38
0000e0 00 eb f1 81 b9 05 20 13 f2 06 10 e3 a5 f8 81 ff
       0 -21 -15 -127 -71 5 32 19 -14 6 16 -29 -91 -8 -127 -1
0000f0 02 d5 df fd 10 df f7 7f 09 14 ea eb 03 39 f6 81
       2 -43 -33 -3 16 -33 -9 127 9 20 -22 -21 3 57 -10 -127

model/quant_conv_dw_5/depthwise;model/quant_conv_dw_5/LastValueQuant/FakeQuantWithMinMaxVarsPerChannel i1 [1, 3, 3, 32]
000000 f4 14 eb f9 28 12 f3 d7 fd 04 11 07 03 28 f4 07
       -12 20 -21 -7 40 18 -13 -41 -3 4 17 7 3 40 -12 7
000010 12 e3 f3 f1 19 22 f2 ee e9 ee fb 0e 20 f2 fe 23
       18 -29 -13 -15 25 34 -14 -18 -23 -18 -5 14 32 -14 -2 35
000020 de 2a 13 f8 de f3 f2 20 0e 1f 21 f6 13 c1 f0 0d
       -34 42 19 -8 -34 -13 -14 32 14 31 33 -10 19 -63 -16 13
000030 02 bd e0 f6 e4 40 f6 fc af cd 29 ef e4 29 1f 19
       2 -67 -32 -10 -28 64 -10 -4 -81 -51 41 -17 -28 41 31 25
000040 0e b8 11 09 fb 26 e7 02 07 02 e9 05 01 17 f2 fc
       14 -72 17 9 -5 38 -25 2 7 2 -23 5 1 23 -14 -4
000050 d2 04 ed 09 18 9c 02 f3 ff f1 0f 07 f6 ea d5 05
       -46 4 -19 9 24 -100 2 -13 -1 -15 15 7 -10 -22 -43 5
000060 1a ff f3 fb e1 ec f5 ed 05 d7 1a fe fe d7 f1 f4
       26 -1 -13 -5 -31 -20 -11 -19 5 -41 26 -2 -2 -41 -15 -12
000070 01 ce ef aa f9 ee e4 f7 02 2b eb 0b fa d8 03 eb
       1 -50 -17 -86 -7 -18 -28 -9 2 43 -21 11 -6 -40 3 -21
000080 e2 1e cc a1 c2 c0 ff 5d 28 f3 03 11 16 3d ff be
       -30 30 -52 -95 -62 -64 -1 93 40 -13 3 17 22 61 -1 -66
000090 4a 14 ef 5a 9c dc e9 06 f1 5c c4 7f ee 5a 33 bf
       74 20 -17 90 -100 -36 -23 6 -15 92 -60 127 -18 90 51 -65
0000a0 c5 e8 fd 67 1f e5 f8 dd 0d 48 ce 25 18 eb f0 f7
       -59 -24 -3 103 31 -27 -8 -35 13 72 -50 37 24 -21 -16 -9
0000b0 00 26 f9 fe f2 30 3c fb e5 1e 40 11 fd c8 fa ce
       0 38 -7 -2 -14 48 60 -5 -27 30 64 17 -3 -56 -6 -50
0000c0 0f e7 1f fc f3 25 f2 08 0e fa 18 10 06 fd 08 0d
       15 -25 31 -4 -13 37 -14 8 14 -6 24 16 6 -3 8 13
0000d0 d6 f8 fe f0 15 ec fa ea 15 ec 27 e8 df f8 db fb
       -42 -8 -2 -16 21 -20 -6 -22 21 -20 39 -24 -33 -8 -37 -5
0000e0 3b be 23 f3 0b 0c f0 15 25 be e9 12 26 06 e7 1e
       59 -66 35 -13 11 12 -16 21 37 -66 -23 18 38 6 -25 30
0000f0 f9 1f ec 1b e9 d8 0c f6 5b ce e5 8d 27 16 1c f3
       -7 31 -20 27 -23 -40 12 -10 91 -50 -27 -115 39 22 28 -13

model/quant_conv2d_10/Conv2D;model/quant_conv2d_10/LastValueQuant/FakeQuantWithMinMaxVarsPerChannel i1 [8, 1, 1, 32]
000000 32 9e b0 d5 f4 0f 4a fd e1 f6 d8 e7 ef c8 72 02
       50 -98 -80 -43 -12 15 74 -3 -31 -10 -40 -25 -17 -56 114 2
000010 d3 f5 7f dc 60 99 51 46 d8 12 b7 ef c3 06 f0 22
       -45 -11 127 -36 96 -103 81 70 -40 18 -73 -17 -61 6 -16 34
000020 44 0f 05 13 f5 43 15 09 b9 48 19 af 8e f0 24 40
       68 15 5 19 -11 67 21 9 -71 72 25 -81 -114 -16 36 64
000030 23 ea 81 f7 50 fd 23 1f 18 24 53 0e d0 29 7b 1f
       35 -22 -127 -9 80 -3 35 31 24 36 83 14 -48 41 123 31
000040 a4 06 d9 11 4b 39 4c 50 e2 bd 5e 44 7c f7 2e 48
       -92 6 -39 17 75 57 76 80 -30 -67 94 68 124 -9 46 72
000050 c1 26 0b 1c 7f f2 e1 b1 e7 12 cb e8 f4 1e 46 74
       -63 38 11 28 127 -14 -31 -79 -25 18 -53 -24 -12 30 70 116
000060 d3 0f 06 1b 07 36 0b ec 0f 7f fc f5 ff f9 fb 10
       -45 15 6 27 7 54 11 -20 15 127 -4 -11 -1 -7 -5 16
000070 f1 7e ef f1 dd fe ed fc c2 04 0f 0b 2e 06 f4 f1
       -15 126 -17 -15 -35 -2 -19 -4 -62 4 15 11 46 6 -12 -15
000080 ea 13 f2 a4 7f d9 21 fc f1 d9 e6 11 e4 e6 32 cf
       -22 19 -14 -92 127 -39 33 -4 -15 -39 -26 17 -28 -26 50 -49
000090 e9 b6 f4 28 31 03 f4 07 2c 04 ca 19 a5 c9 09 0c
       -23 -74 -12 40 49 3 -12 7 44 4 -54 25 -91 -55 9 12
0000a0 ed 01 fc 1b d1 f7 f4 08 7f 2b 0b c7 f1 f8 ec e4
       -19 1 -4 27 -47 -9 -12 8 127 43 11 -57 -15 -8 -20 -28
0000b0 04 e6 0d 1f 38 0e a7 1a c4 be 0d bd e3 0c 1b c1
       4 -26 13 31 56 14 -89 26 -60 -66 13 -67 -29 12 27 -63
0000c0 e3 f8 fd ea df 81 ec 21 fd 36 09 fb e8 f9 ee c3
       -29 -8 -3 -22 -33 -127 -20 33 -3 54 9 -5 -24 -7 -18 -61
0000d0 0a 5e e7 18 0e 14 e9 f1 51 26 e3 18 e1 00 0a e8
       10 94 -25 24 14 20 -23 -15 81 38 -29 24 -31 0 10 -24
0000e0 29 f7 0f 9f c1 26 0f a4 81 d7 cd 3e 0d d9 fb 0a
       41 -9 15 -97 -63 38 15 -92 -127 -41 -51 62 13 -39 -5 10
0000f0 f6 e2 6b bc ec ff f7 14 3a 2a eb 32 ed b6 26 67
       -10 -30 107 -68 -20 -1 -9 20 58 42 -21 50 -19 -74 38 103

model/quant_conv2d_11/Conv2D;model/quant_conv2d_11/LastValueQuant/FakeQuantWithMinMaxVarsPerChannel i1 [32, 1, 1, 8]
000000 c1 2b c7 bf b1 81 53 98 ff 06 02 47 7f fa f3 f2
       -63 43 -57 -65 -79 -127 83 -104 -1 6 2 71 127 -6 -13 -14
000010 ff f7 e6 c9 3f ef 7f f7 f6 e6 02 04 0a 7f 10 e5
       -1 -9 -26 -55 63 -17 127 -9 -10 -26 2 4 10 127 16 -27
000020 df 24 69 f8 13 81 04 b9 4c 7f 9e 03 11 27 fe 08
       -33 36 105 -8 19 -127 4 -71 76 127 -98 3 17 39 -2 8
000030 04 f5 f3 fd f9 49 12 81 c8 23 df fb fb 0e 14 81
       4 -11 -13 -3 -7 73 18 -127 -56 35 -33 -5 -5 14 20 -127
000040 fd 81 ce 49 d2 e5 b3 eb a7 32 81 0b 03 00 01 cb
       -3 -127 -50 73 -46 -27 -77 -21 -89 50 -127 11 3 0 1 -53
000050 d0 df b6 c4 c4 8f 7f 83 fd f9 f9 fe 06 f3 03 7f
       -48 -33 -74 -60 -60 -113 127 -125 -3 -7 -7 -2 6 -13 3 127
000060 12 cd 7f fe 04 83 fe c4 11 a3 d5 aa 7f 00 5a e7
       18 -51 127 -2 4 -125 -2 -60 17 -93 -43 -86 127 0 90 -25
000070 00 03 ea 7f d7 c9 77 dc b7 39 eb c2 f0 81 70 01
       0 3 -22 127 -41 -55 119 -36 -73 57 -21 -62 -16 -127 112 1
000080 ca 2a e2 d3 f3 81 55 04 f5 fd f1 7f 2d f8 0b f3
       -54 42 -30 -45 -13 -127 85 4 -11 -3 -15 127 45 -8 11 -13
000090 15 07 04 5e d4 03 7f 11 f6 05 fc 5a 00 f4 7f f4
       21 7 4 94 -44 3 127 17 -10 5 -4 90 0 -12 127 -12
0000a0 7f fd ba fa d0 d5 16 96 05 0e 0e 04 fe 33 02 81
       127 -3 -70 -6 -48 -43 22 -106 5 14 14 4 -2 51 2 -127
0000b0 04 fc f6 f6 81 fb 69 01 32 f6 2c fa 06 7f 06 f9
       4 -4 -10 -10 -127 -5 105 1 50 -10 44 -6 6 127 6 -7
0000c0 d8 ea df d7 d9 ea 7f 2b fa fa fd 7f 0f ff 40 fa
       -40 -22 -33 -41 -39 -22 127 43 -6 -6 -3 127 15 -1 64 -6
0000d0 d9 f6 7f f0 9b 7c 45 aa 14 63 c5 11 f4 81 f8 2a
       -39 -10 127 -16 -101 124 69 -86 20 99 -59 17 -12 -127 -8 42
0000e0 13 ef 1c f7 02 47 0b 81 94 7f 4a fe fb 13 fe e2
       19 -17 28 -9 2 71 11 -127 -108 127 74 -2 -5 19 -2 -30
0000f0 f7 15 33 11 fa 81 fc ea ee fa f8 81 3f f8 8d f3
       -9 21 51 17 -6 -127 -4 -22 -18 -6 -8 -127 63 -8 -115 -13

model/quant_conv_dw_6/depthwise;model/quant_conv_dw_6/LastValueQuant/FakeQuantWithMinMaxVarsPerChannel i1 [1, 3, 3, 32]
000000 fd 15 16 05 13 1d b7 01 16 24 f7 21 d3 1a e9 37
       -3 21 22 5 19 29 -73 1 22 36 -9 33 -45 26 -23 55
000010 01 0d 00 e8 0a 16 eb f9 10 f9 0b ed 30 ff ed 15
       1 13 0 -24 10 22 -21 -7 16 -7 11 -19 48 -1 -19 21
000020 f8 28 29 1d 39 2f e6 c5 2e 4b ef 34 fc 34 c3 57
       -8 40 41 29 57 47 -26 -59 46 75 -17 52 -4 52 -61 87
000030 08 0b fb d4 22 45 df ed 25 e8 1b e9 36 f4 d1 2a
       8 11 -5 -44 34 69 -33 -19 37 -24 27 -23 54 -12 -47 42
000040 ba 26 1c 1a 3f 28 0c 03 27 34 e7 1c 35 27 24 22
       -70 38 28 26 63 40 12 3 39 52 -25 28 53 39 36 34
000050 00 c8 f9 e2 1d 34 eb fb 28 ee 15 de 25 ec e7 1f
       0 -56 -7 -30 29 52 -21 -5 40 -18 21 -34 37 -20 -25 31
000060 08 25 26 19 2f 45 87 0a 2c 2b ee 43 d8 2d d5 b5
       8 37 38 25 47 69 -121 10 44 43 -18 67 -40 45 -43 -75
000070 40 1d ff dc 1d 1c e1 df 27 f2 23 ed f9 e6 e7 32
       64 29 -1 -36 29 28 -31 -33 39 -14 35 -19 -7 -26 -25 50
000080 47 70 4d 56 7e 4c d3 9f 6a 71 cb 5f cc 7a bb b6
       71 112 77 86 126 76 -45 -97 106 113 -53 95 -52 122 -69 -74
000090 67 45 45 b9 56 7f ae b0 66 c8 6f df 19 c0 e1 70
       103 69 69 -71 86 127 -82 -80 102 -56 111 -33 25 -64 -31 112
0000a0 a7 6a 37 56 70 1b 1f 4d 59 7c d3 2a 29 5f 59 db
       -89 106 55 86 112 27 31 77 89 124 -45 42 41 95 89 -37
0000b0 2c 9e 40 d3 4b 65 c3 c6 5b d5 50 e3 31 c8 de 4f
       44 -98 64 -45 75 101 -61 -58 91 -43 80 -29 49 -56 -34 79
0000c0 01 1d 1c 21 24 39 d1 07 1f 0c df 32 00 1f f4 0e
       1 29 28 33 36 57 -47 7 31 12 -33 50 0 31 -12 14
0000d0 b6 0d 07 e9 1d 13 eb e2 21 f9 1f dc a9 e7 e0 23
       -74 13 7 -23 29 19 -21 -30 33 -7 31 -36 -87 -25 -32 35
0000e0 58 4b 3b 4f 61 3a 0e a3 49 3e d2 3c bd 57 fb 03
       88 75 59 79 97 58 14 -93 73 62 -46 60 -67 87 -5 3
0000f0 9c 3d 3d ce 48 52 c4 c7 5d d1 5d d8 ac bf e0 4f
       -100 61 61 -50 72 82 -60 -57 93 -47 93 -40 -84 -65 -32 79

model/quant_conv2d_12/Conv2D;model/quant_conv2d_12/LastValueQuant/FakeQuantWithMinMaxVarsPerChannel i1 [8, 1, 1, 32]
000000 fe 16 ea 35 81 13 0a fa f5 37 17 0c 1b d7 ef fd
       -2 22 -22 53 -127 19 10 -6 -11 55 23 12 27 -41 -17 -3
000010 f6 fd f7 07 d5 da 15 13 fa fe f4 f7 fa 06 36 ff
       -10 -3 -9 7 -43 -38 21 19 -6 -2 -12 -9 -6 6 54 -1
000020 e4 ea 24 d5 dd 40 e3 e9 96 8e e4 0f f6 7f e3 f3
       -28 -22 36 -43 -35 64 -29 -23 -106 -114 -28 15 -10 127 -29 -13
000030 fd d7 02 1a 11 e1 1f f7 3c 0e ca f3 0f 39 0d ff
       -3 -41 2 26 17 -31 31 -9 60 14 -54 -13 15 57 13 -1
000040 11 1f 11 d8 10 7f 0a 0a c2 eb 2d 21 05 98 0f 0c
       17 31 17 -40 16 127 10 10 -62 -21 45 33 5 -104 15 12
000050 13 0c fa 02 44 1f 02 ba 83 07 be b3 2e 07 f6 19
       19 12 -6 2 68 31 2 -70 -125 7 -66 -77 46 7 -10 25
000060 33 ea 18 13 33 14 51 32 81 37 08 4f 10 ef 17 3d
       51 -22 24 19 51 20 81 50 -127 55 8 79 16 -17 23 61
000070 3e 20 f5 f5 d3 f9 02 d9 31 00 23 e8 27 cd ff 04
       62 32 -11 -11 -45 -7 2 -39 49 0 35 -24 39 -51 -1 4
000080 f9 17 d0 38 14 0c fe 15 eb 81 11 f8 f0 f8 03 0a
       -7 23 -48 56 20 12 -2 21 -21 -127 17 -8 -16 -8 3 10
000090 06 07 fd ff d9 20 24 bb ca 00 56 20 0e 06 f5 fe
       6 7 -3 -1 -39 32 36 -69 -54 0 86 32 14 6 -11 -2
0000a0 12 10 3f 4c cf f0 df ff ad 5e e6 96 15 7f 0f f3
       18 16 63 76 -49 -16 -33 -1 -83 94 -26 -106 21 127 15 -13
0000b0 eb 13 ee f7 2d 79 19 fc e3 fe 1c 05 da d8 20 08
       -21 19 -18 -9 45 121 25 -4 -29 -2 28 5 -38 -40 32 8
0000c0 04 76 16 f9 f4 17 02 ff 03 f3 09 05 01 f0 13 ff
       4 118 22 -7 -12 23 2 -1 3 -13 9 5 1 -16 19 -1
0000d0 02 0a 2c b1 08 fe d9 f7 1c c3 0f fb 08 04 04 81
       2 10 44 -79 8 -2 -39 -9 28 -61 15 -5 8 4 4 -127
0000e0 04 81 d8 10 d1 19 ee fa f1 e7 ee f3 02 c1 06 f9
       4 -127 -40 16 -47 25 -18 -6 -15 -25 -18 -13 2 -63 6 -7
0000f0 fb f9 1f 19 4e 0e a7 ea 36 12 2d f6 00 0c 12 f0
       -5 -7 31 25 78 14 -89 -22 54 18 45 -10 0 12 18 -16

model/quant_conv2d_13/Conv2D;model/quant_conv2d_13/LastValueQuant/FakeQuantWithMinMaxVarsPerChannel i1 [48, 1, 1, 8]
000000 00 e3 e3 fa 23 2b 7f 13 c9 fe 7f b8 d7 34 02 f8
       0 -29 -29 -6 35 43 127 19 -55 -2 127 -72 -41 52 2 -8
000010 40 3f e4 81 1c 8f 07 fa 1e 5d f3 ee 81 d0 a8 b5
       64 63 -28 -127 28 -113 7 -6 30 93 -13 -18 -127 -48 -88 -75
000020 7f 5d f5 06 28 f9 26 b0 2a ed 34 dc 2b 8d a3 7f
       127 93 -11 6 40 -7 38 -80 42 -19 52 -36 43 -115 -93 127
000030 18 2a 44 44 b1 81 12 05 ed 81 3e b5 d7 f1 13 9c
       24 42 68 68 -79 -127 18 5 -19 -127 62 -75 -41 -15 19 -100
000040 38 35 08 e5 fe 3f 81 ae 7e 3e ab 05 4c 95 d4 7f
       56 53 8 -27 -2 63 -127 -82 126 62 -85 5 76 -107 -44 127
000050 7f 0c b3 e2 50 38 ea 0f 27 4c 37 48 81 f1 24 94
       127 12 -77 -30 80 56 -22 15 39 76 55 72 -127 -15 36 -108
000060 13 7f a9 2e db 07 d9 26 7b 24 e6 81 7f cc 62 d7
       19 127 -87 46 -37 7 -39 38 123 36 -26 -127 127 -52 98 -41
000070 f8 0c 12 f5 d8 47 81 83 b0 65 99 45 cd 5c 0a 7f
       -8 12 18 -11 -40 71 -127 -125 -80 101 -103 69 -51 92 10 127
000080 14 1b 1e 07 02 32 f9 81 16 5c d8 24 66 42 4b 81
       20 27 30 7 2 50 -7 -127 22 92 -40 36 102 66 75 -127
000090 38 1f 08 67 7f d1 ee 05 cb 7f cc 3e ff 2b 6a fd
       56 31 8 103 127 -47 -18 5 -53 127 -52 62 -1 43 106 -3
0000a0 cc 7f fa 40 c3 66 37 22 fc e6 f0 0a f8 cb df 7f
       -52 127 -6 64 -61 102 55 34 -4 -26 -16 10 -8 -53 -33 127
0000b0 17 8b 86 e2 81 28 f1 df 6e 7f 97 f7 19 ce fb 41
       23 -117 -122 -30 -127 40 -15 -33 110 127 -105 -9 25 -50 -5 65
0000c0 7f 24 e7 07 1a a3 f7 e3 f6 0a 28 fb 02 2a b7 81
       127 36 -25 7 26 -93 -9 -29 -10 10 40 -5 2 42 -73 -127
0000d0 60 81 2e a7 39 d8 2a 90 04 32 01 f0 ee 31 7f 93
       96 -127 46 -89 57 -40 42 -112 4 50 1 -16 -18 49 127 -109
0000e0 0c 7f 11 1b e1 39 14 34 16 15 e1 ec 07 f5 7f 21
       12 127 17 27 -31 57 20 52 22 21 -31 -20 7 -11 127 33
0000f0 3c ae e6 07 59 b5 e1 7f 81 cd aa 94 0f 60 f5 14
       60 -82 -26 7 89 -75 -31 127 -127 -51 -86 -108 15 96 -11 20

model/quant_conv_dw_7/depthwise;model/quant_conv_dw_7/LastValueQuant/FakeQuantWithMinMaxVarsPerChannel i1 [1, 3, 3, 48]
000000 f5 1e 11 e2 13 fc 16 e9 18 07 f5 06 06 f9 ff fe
       -11 30 17 -30 19 -4 22 -23 24 7 -11 6 6 -7 -1 -2
000010 f5 1a 2c 06 0a ed 1b 0c f1 27 0f f5 0e ff f8 0c
       -11 26 44 6 10 -19 27 12 -15 39 15 -11 14 -1 -8 12
000020 fd 11 fc d7 f6 ef 1b fb ff f3 0a f1 f7 40 e7 0f
       -3 17 -4 -41 -10 -17 27 -5 -1 -13 10 -15 -9 64 -25 15
000030 df fe 09 f2 e0 e8 00 00 31 22 08 2f 20 ed 08 0d
       -33 -2 9 -14 -32 -24 0 0 49 34 8 47 32 -19 8 13
000040 2c d3 ec 00 05 06 0e 15 15 1b ce e5 1c 37 43 f5
       44 -45 -20 0 5 6 14 21 21 27 -50 -27 28 55 67 -11
000050 24 ee f8 0c de 2c df 10 5c 0d 47 1f 11 14 2c e3
       36 -18 -8 12 -34 44 -33 16 92 13 71 31 17 20 44 -29
000060 fa 02 ea 0b ff fb f6 ee ff 01 e5 25 df 10 f9 f7
       -6 2 -22 11 -1 -5 -10 -18 -1 1 -27 37 -33 16 -7 -9
000070 f3 14 e2 08 23 ef 1c 08 e2 16 16 ff 09 d4 fe 0e
       -13 20 -30 8 35 -17 28 8 -30 22 22 -1 9 -44 -2 14
000080 f6 04 01 fd 1b f5 f5 f8 04 de 11 e0 fa 09 e9 0c
       -10 4 1 -3 27 -11 -11 -8 4 -34 17 -32 -6 9 -23 12
000090 ef ff 42 fe e6 e3 3d 02 1e 20 0e f3 49 e1 04 06
       -17 -1 66 -2 -26 -29 61 2 30 32 14 -13 73 -31 4 6
0000a0 06 e3 09 02 e5 08 07 05 28 0a f3 ec 0f 2d 04 00
       6 -29 9 2 -27 8 7 5 40 10 -13 -20 15 45 4 0
0000b0 ff d0 0a dd 1d 1f 13 04 00 f2 04 0d ef f6 18 e9
       -1 -48 10 -35 29 31 19 4 0 -14 4 13 -17 -10 24 -23
0000c0 fc d2 be bf 09 02 04 d7 fe 81 47 ea e6 06 a7 45
       -4 -46 -66 -65 9 2 4 -41 -2 -127 71 -22 -26 6 -89 69
0000d0 f1 5e eb 50 d8 bf c1 30 3e a9 cd f7 08 25 a9 4d
       -15 94 -21 80 -40 -65 -63 48 62 -87 -51 -9 8 37 -87 77
0000e0 37 0a 50 dd 36 82 19 4a f3 50 e4 dd e4 ef c4 f2
       55 10 80 -35 54 -126 25 74 -13 80 -28 -35 -28 -17 -60 -14
0000f0 03 e3 03 48 e6 e1 c9 03 e4 16 09 fb cb dd 05 0b
       3 -29 3 72 -26 -31 -55 3 -28 22 9 -5 -53 -35 5 11

model/quant_conv2d_14/Conv2D;model/quant_conv2d_14/LastValueQuant/FakeQuantWithMinMaxVarsPerChannel i1 [8, 1, 1, 48]
000000 09 ea bc f6 2b d2 12 e8 bb fd 36 13 46 fa 47 c9
       9 -22 -68 -10 43 -46 18 -24 -69 -3 54 19 70 -6 71 -55
000010 ec 11 41 dd ee 3c f8 00 1e f4 30 0b 42 e7 fc e1
       -20 17 65 -35 -18 60 -8 0 30 -12 48 11 66 -25 -4 -31
000020 31 21 ca 4d 7f e1 fc b5 59 f7 57 40 07 42 4d ea
       49 33 -54 77 127 -31 -4 -75 89 -9 87 64 7 66 77 -22
000030 22 ed 35 c0 4c a1 e3 3f de ec bd 47 cf d1 f6 c3
       34 -19 53 -64 76 -95 -29 63 -34 -20 -67 71 -49 -47 -10 -61
000040 0c 3c 16 18 36 07 a0 00 06 2e eb 81 67 24 3f ce
       12 60 22 24 54 7 -96 0 6 46 -21 -127 103 36 63 -50
000050 70 0b c8 f5 03 fe c1 fa ac f2 30 34 37 2e 59 4d
       112 11 -56 -11 3 -2 -63 -6 -84 -14 48 52 55 46 89 77
000060 fd 6a 0e 08 2c 0a d5 a6 df 1f 1e 16 36 df 01 f2
       -3 106 14 8 44 10 -43 -90 -33 31 30 22 54 -33 1 -14
000070 14 2a b8 f7 bf ec 86 00 19 f5 25 33 68 1a fd d7
       20 42 -72 -9 -65 -20 -122 0 25 -11 37 51 104 26 -3 -41
000080 21 0a 26 12 0d f8 45 59 27 15 81 be 10 1f d6 04
       33 10 38 18 13 -8 69 89 39 21 -127 -66 16 31 -42 4
000090 33 dc f7 63 e8 39 b2 fe fb af fa 2b 81 d4 cd 4e
       51 -36 -9 99 -24 57 -78 -2 -5 -81 -6 43 -127 -44 -51 78
0000a0 1b e2 29 0d 3f aa db 00 64 f5 93 d2 ea e3 0e 23
       27 -30 41 13 63 -86 -37 0 100 -11 -109 -46 -22 -29 14 35
0000b0 f8 6c d0 eb 09 e3 e5 dc d6 2c da 7d 38 9a e1 23
       -8 108 -48 -21 9 -29 -27 -36 -42 44 -38 125 56 -102 -31 35
0000c0 08 e7 81 3d 10 c9 34 fb 30 d1 4e b8 e7 54 76 c6
       8 -25 -127 61 16 -55 52 -5 48 -47 78 -72 -25 84 118 -58
0000d0 0f 5e 97 05 fc 2f 8d 00 f2 ce 4b 1d f6 20 d8 4a
       15 94 -105 5 -4 47 -115 0 -14 -50 75 29 -10 32 -40 74
0000e0 34 59 d2 f9 f9 df 38 a4 0e c8 fe 37 22 10 2b 27
       52 89 -46 -7 -7 -33 56 -92 14 -56 -2 55 34 16 43 39
0000f0 09 32 67 23 20 da 50 34 b0 1d 71 d5 ce f0 b7 2b
       9 50 103 35 32 -38 80 52 -80 29 113 -43 -50 -16 -73 43

model/quant_conv2d_15/Conv2D;model/quant_conv2d_15/LastValueQuant/FakeQuantWithMinMaxVarsPerChannel i1 [48, 1, 1, 8]
000000 f4 c1 20 fd 06 7f f0 15 0c 7f c1 13 4e 55 2c fc
       -12 -63 32 -3 6 127 -16 21 12 127 -63 19 78 85 44 -4
000010 49 7f 97 c4 6e f2 ec 21 0b 0b 16 16 3c f2 66 81
       73 127 -105 -60 110 -14 -20 33 11 11 22 22 60 -14 102 -127
000020 cc 38 0a 3c 38 81 eb cf ca 16 5f 06 81 51 fa 5e
       -52 56 10 60 56 -127 -21 -49 -54 22 95 6 -127 81 -6 94
000030 3d 7f b7 4a bb e2 0c 34 b1 32 0e e0 81 10 0c e2
       61 127 -73 74 -69 -30 12 52 -79 50 14 -32 -127 16 12 -30
000040 fc e2 0a e6 f4 10 7f c2 c0 2f 18 2d bb 5f 5a 81
       -4 -30 10 -26 -12 16 127 -62 -64 47 24 45 -69 95 90 -127
000050 81 49 27 a6 39 db fb 0e 37 2b c3 1b 42 0d 7f af
       -127 73 39 -90 57 -37 -5 14 55 43 -61 27 66 13 127 -81
000060 9f 7f d1 53 90 3a 36 02 fa 24 13 fc e9 d5 81 01
       -97 127 -47 83 -112 58 54 2 -6 36 19 -4 -23 -43 -127 1
000070 59 1b e9 0d 7f 04 fe f7 b2 81 63 fd ce 3e e6 fd
       89 27 -23 13 127 4 -2 -9 -78 -127 99 -3 -50 62 -26 -3
000080 7f 0d f6 0d 1e 17 14 13 6a c8 27 a7 07 81 ca 20
       127 13 -10 13 30 23 20 19 106 -56 39 -89 7 -127 -54 32
000090 f8 99 f1 f6 f5 7f 13 0c be 3e b8 3d cf 57 7f 04
       -8 -103 -15 -10 -11 127 19 12 -66 62 -72 61 -49 87 127 4
0000a0 78 50 da 81 79 e3 c5 f2 65 7f 43 d8 da e0 e8 07
       120 80 -38 -127 121 -29 -59 -14 101 127 67 -40 -38 -32 -24 7
0000b0 5f fa e5 7f 5f a8 fe f7 72 f2 0a 07 7f 88 c6 eb
       95 -6 -27 127 95 -88 -2 -9 114 -14 10 7 127 -120 -58 -21
0000c0 37 81 17 da 2b fa ec e4 34 17 3e 08 50 7f d7 f8
       55 -127 23 -38 43 -6 -20 -28 52 23 62 8 80 127 -41 -8
0000d0 fe 81 35 d5 03 ba 2f 23 d2 7d b7 3c ba 7f c8 ee
       -2 -127 53 -43 3 -70 47 35 -46 125 -73 60 -70 127 -56 -18
0000e0 11 05 ed e7 f5 e7 7f f5 15 03 e0 08 41 12 7f 22
       17 5 -19 -25 -11 -25 127 -11 21 3 -32 8 65 18 127 34
0000f0 c6 27 92 51 88 2b ab 7f 24 81 3e be eb c8 10 c5
       -58 39 -110 81 -120 43 -85 127 36 -127 62 -66 -21 -56 16 -59

model/quant_conv_dw_8/depthwise;model/quant_conv_dw_8/LastValueQuant/FakeQuantWithMinMaxVarsPerChannel i1 [1, 3, 3, 48]
000000 e9 e1 ee fc f6 04 05 fe 26 e7 0a 05 fc f2 11 e1
       -23 -31 -18 -4 -10 4 5 -2 38 -25 10 5 -4 -14 17 -31
000010 23 e2 1a f8 f9 27 04 2b 07 16 20 05 f2 16 05 02
       35 -30 26 -8 -7 39 4 43 7 22 32 5 -14 22 5 2
000020 1f 0f f5 03 01 29 14 06 0a 0a 21 f2 fc 22 00 fa
       31 15 -11 3 1 41 20 6 10 10 33 -14 -4 34 0 -6
000030 06 f9 e7 e0 07 d9 26 ed f9 0d 04 e2 e7 fa 27 fe
       6 -7 -25 -32 7 -39 38 -19 -7 13 4 -30 -25 -6 39 -2
000040 0f 16 2b 07 05 04 07 f0 0f 4d 0c 10 fd 49 19 18
       15 22 43 7 5 4 7 -16 15 77 12 16 -3 73 25 24
000050 d4 18 ed e6 c4 30 2c 0d 1b eb e2 ed d7 0f 0d d9
       -44 24 -19 -26 -60 48 44 13 27 -21 -30 -19 -41 15 13 -39
000060 07 f0 03 05 10 06 07 0e 29 e7 19 00 0c f6 16 11
       7 -16 3 5 16 6 7 14 41 -25 25 0 12 -10 22 17
000070 fe f1 1d fc e6 f7 fd f6 07 ea 0e fc f5 ef 04 fc
       -2 -15 29 -4 -26 -9 -3 -10 7 -22 14 -4 -11 -17 4 -4
000080 04 13 fb fe 03 e2 e9 fe 03 11 13 f5 db 25 09 fe
       4 19 -5 -2 3 -30 -23 -2 3 17 19 -11 -37 37 9 -2
000090 f1 f9 f2 e3 0a 1f f8 13 04 fb 0d e5 fc 10 04 bb
       -15 -7 -14 -29 10 31 -8 19 4 -5 13 -27 -4 16 4 -69
0000a0 09 fa f9 0a 02 3b e6 4e 1a 0d 18 0b ea d3 14 16
       9 -6 -7 10 2 59 -26 78 26 13 24 11 -22 -45 20 22
0000b0 f6 17 51 27 06 12 e7 fc 22 df fc f4 2d e3 eb f6
       -10 23 81 39 6 18 -25 -4 34 -33 -4 -12 45 -29 -21 -10
0000c0 b9 da 31 1a c2 cd 42 07 85 ed d4 4f c6 bc 81 1c
       -71 -38 49 26 -62 -51 66 7 -123 -19 -44 79 -58 -68 -127 28
0000d0 aa cd db 53 b4 bb d8 e6 33 c7 90 4f 17 01 40 40
       -86 -51 -37 83 -76 -69 -40 -26 51 -57 -112 79 23 1 64 64
0000e0 f9 95 d5 06 08 14 1b 52 86 ff 92 f4 f5 ca ac f8
       -7 -107 -43 6 8 20 27 82 -122 -1 -110 -12 -11 -54 -84 -8
0000f0 e0 f5 f5 e0 51 f4 0e 25 ef fa 05 f1 0b 14 06 13
       -32 -11 -11 -32 81 -12 14 37 -17 -6 5 -15 11 20 6 19

model/quant_conv2d_16/Conv2D;model/quant_conv2d_16/LastValueQuant/FakeQuantWithMinMaxVarsPerChannel i1 [8, 1, 1, 48]
000000 e9 22 fb b5 1e e9 61 e0 04 19 81 1c 2b f8 cb 05
       -23 34 -5 -75 30 -23 97 -32 4 25 -127 28 43 -8 -53 5
000010 9f df 3b 2a 9a 9c 4c 1a eb 12 f9 e0 21 1b 13 c9
       -97 -33 59 42 -102 -100 76 26 -21 18 -7 -32 33 27 19 -55
000020 84 ec 16 18 3f c2 ac 00 b9 d4 c1 ca 29 d4 28 dd
       -124 -20 22 24 63 -62 -84 0 -71 -44 -63 -54 41 -44 40 -35
000030 18 f9 22 cf bd 1d 23 d5 fd da 26 17 38 cc 02 00
       24 -7 34 -49 -67 29 35 -43 -3 -38 38 23 56 -52 2 0
000040 f3 48 ce 29 0e b8 fb 7f ce e1 ac 25 3a 22 eb e7
       -13 72 -50 41 14 -72 -5 127 -50 -31 -84 37 58 34 -21 -25
000050 0a c6 e8 02 2e 17 f0 00 c2 0e 08 11 1b d9 17 f6
       10 -58 -24 2 46 23 -16 0 -62 14 8 17 27 -39 23 -10
000060 9c 50 e2 38 25 2b c6 fd fa 2d 40 da 31 f4 30 62
       -100 80 -30 56 37 43 -58 -3 -6 45 64 -38 49 -12 48 98
000070 0b c8 c7 24 29 a1 d1 e2 2d c1 f6 33 2b 43 e3 1e
       11 -56 -57 36 41 -95 -47 -30 45 -63 -10 51 43 67 -29 30
000080 0b 11 f6 e0 09 c0 81 00 15 15 a1 fc 2f e6 fa 48
       11 17 -10 -32 9 -64 -127 0 21 21 -95 -4 47 -26 -6 72
000090 02 91 3e f9 f5 f5 50 1b e1 c5 f7 08 4b 2f 5c a3
       2 -111 62 -7 -11 -11 80 27 -31 -59 -9 8 75 47 92 -93
0000a0 10 25 dc c0 c2 aa d8 a1 b8 3e e3 10 00 3d e1 c9
       16 37 -36 -64 -62 -86 -40 -95 -72 62 -29 16 0 61 -31 -55
0000b0 c5 cf f3 52 0a 10 e9 00 fb cc 29 4c ff 4b 7f c9
       -59 -49 -13 82 10 16 -23 0 -5 -52 41 76 -1 75 127 -55
0000c0 38 22 63 c4 1f b7 ca 95 01 d6 45 4d 40 e3 99 ec
       56 34 99 -60 31 -73 -54 -107 1 -42 69 77 64 -29 -103 -20
0000d0 0f d0 e9 25 cf fb 55 bc 35 c7 fc e2 0e 1b cf 81
       15 -48 -23 37 -49 -5 85 -68 53 -57 -4 -30 14 27 -49 -127
0000e0 d8 d2 2d 40 c1 38 00 00 e5 53 10 e1 f1 b1 da e4
       -40 -46 45 64 -63 56 0 0 -27 83 16 -31 -15 -79 -38 -28
0000f0 a3 e9 df 35 7f 46 d5 cd 09 b5 0f 13 e0 21 e7 16
       -93 -23 -33 53 127 70 -43 -51 9 -75 15 19 -32 33 -25 22

model/quant_conv2d_17/Conv2D;model/quant_conv2d_17/LastValueQuant/FakeQuantWithMinMaxVarsPerChannel i1 [48, 1, 1, 8]
000000 03 27 04 08 07 26 42 81 77 2f ab 3a 7f cf e9 09
       3 39 4 8 7 38 66 -127 119 47 -85 58 127 -49 -23 9
000010 81 ed d2 f0 0c c9 f8 da e6 7f b5 3d f2 45 2b f4
       -127 -19 -46 -16 12 -55 -8 -38 -26 127 -75 61 -14 69 43 -12
000020 fc 40 10 81 b9 f2 0e fd e0 7f b0 42 01 42 02 32
       -4 64 16 -127 -71 -14 14 -3 -32 127 -80 66 1 66 2 50
000030 f5 cb 07 f5 f0 c6 c3 7f fe 2b 23 fb ff 37 bd 81
       -11 -53 7 -11 -16 -58 -61 127 -2 43 35 -5 -1 55 -67 -127
000040 f6 29 f5 05 fa 24 7f a5 f8 9a 81 e7 92 42 ed e0
       -10 41 -11 5 -6 36 127 -91 -8 -102 -127 -25 -110 66 -19 -32
000050 ad 7f c3 68 cc 50 a0 3b d0 db 4c dd 1e 7f e6 27
       -83 127 -61 104 -52 80 -96 59 -48 -37 76 -35 30 127 -26 39
000060 14 2b ca aa 81 e0 fe ea 56 81 5a 88 2e aa 55 b9
       20 43 -54 -86 -127 -32 -2 -22 86 -127 90 -120 46 -86 85 -71
000070 f0 6c ee 17 fd 49 7f 87 b0 7f b5 55 ba 46 20 0c
       -16 108 -18 23 -3 73 127 -121 -80 127 -75 85 -70 70 32 12
000080 81 d9 3a ff 91 4b ef 0f 0f f3 02 ee 06 f8 81 39
       -127 -39 58 -1 -111 75 -17 15 15 -13 2 -18 6 -8 -127 57
000090 ca 3b 66 dd 07 ed 7f 5d 04 14 32 ee 0b 23 e7 81
       -54 59 102 -35 7 -19 127 93 4 20 50 -18 11 35 -25 -127
0000a0 8b 1e 31 02 81 23 e2 02 f7 dc 26 23 81 22 04 f2
       -117 30 49 2 -127 35 -30 2 -9 -36 38 35 -127 34 4 -14
0000b0 02 e2 f5 f1 fc f0 7f fc 81 ed 60 93 b3 7c 10 01
       2 -30 -11 -15 -4 -16 127 -4 -127 -19 96 -109 -77 124 16 1
0000c0 30 81 57 ad f2 87 1b b9 81 cc a3 cf 57 1f f1 ec
       48 -127 87 -83 -14 -121 27 -71 -127 -52 -93 -49 87 31 -15 -20
0000d0 14 1c 18 fa 18 2c 01 81 c4 bc 37 7f e0 07 f7 f1
       20 28 24 -6 24 44 1 -127 -60 -68 55 127 -32 7 -9 -15
0000e0 f6 47 3d 39 00 81 0c eb 02 ce f2 f0 ff e6 7f 22
       -10 71 61 57 0 -127 12 -21 2 -50 -14 -16 -1 -26 127 34
0000f0 25 7f cb 18 1f 17 d0 df f3 e5 da 0b f6 d7 15 7f
       37 127 -53 24 31 23 -48 -33 -13 -27 -38 11 -10 -41 21 127

model/quant_conv_dw_9/depthwise;model/quant_conv_dw_9/LastValueQuant/FakeQuantWithMinMaxVarsPerChannel i1 [1, 3, 3, 48]
000000 e6 f0 01 03 fc fa fb f0 f7 f7 fd 05 f8 00 03 04
       -26 -16 1 3 -4 -6 -5 -16 -9 -9 -3 5 -8 0 3 4
000010 fd 0a ff f9 07 01 f8 08 06 fa 09 01 02 0a 03 f6
       -3 10 -1 -7 7 1 -8 8 6 -6 9 1 2 10 3 -10
000020 00 09 f9 01 ee fd f5 fe fc ef 06 02 f9 ff 09 07
       0 9 -7 1 -18 -3 -11 -2 -4 -17 6 2 -7 -1 9 7
000030 f0 fd fd f3 01 b4 b7 fc 00 03 e4 d9 ff fc fb 5e
       -16 -3 -3 -13 1 -76 -73 -4 0 3 -28 -39 -1 -4 -5 94
000040 cb 03 08 bb fe ee be 02 f7 0c 00 fa f7 00 eb 02
       -53 3 8 -69 -2 -18 -66 2 -9 12 0 -6 -9 0 -21 2
000050 fd 0d 01 fa f5 f4 01 f4 f0 e9 ff 06 ff ee 25 3b
       -3 13 1 -6 -11 -12 1 -12 -16 -23 -1 6 -1 -18 37 59
000060 eb f4 07 0b fb f8 f9 ef 09 f2 fc f9 f6 fe 00 0a
       -21 -12 7 11 -5 -8 -7 -17 9 -14 -4 -7 -10 -2 0 10
000070 fb 09 03 f9 fb fd f9 04 03 09 f7 02 f8 f8 ff fa
       -5 9 3 -7 -5 -3 -7 4 3 9 -9 2 -8 -8 -1 -6
000080 fe 0b fb 00 e9 fa 08 f4 fb f3 07 00 fe fb 08 07
       -2 11 -5 0 -23 -6 8 -12 -5 -13 7 0 -2 -5 8 7
000090 e8 d5 06 f9 0e 04 fd f4 a4 03 ea f2 fc 03 ff ff
       -24 -43 6 -7 14 4 -3 -12 -92 3 -22 -14 -4 3 -1 -1
0000a0 02 0b 0b 01 3f e6 00 fb 43 01 52 ee 13 45 f3 f9
       2 11 11 1 63 -26 0 -5 67 1 82 -18 19 69 -13 -7
0000b0 fb 1c f4 fd e0 ec a4 fb e9 ee 09 fe ff e9 fb fe
       -5 28 -12 -3 -32 -20 -92 -5 -23 -18 9 -2 -1 -23 -5 -2
0000c0 78 68 a9 aa ca ee fd 6f 06 45 6d 62 4c 99 a4 de
       120 104 -87 -86 -54 -18 -3 111 6 69 109 98 76 -103 -92 -34
0000d0 e3 a4 c4 01 f7 70 fc 3e e5 c8 06 fd 2e 01 61 52
       -29 -92 -60 1 -9 112 -4 62 -27 -56 6 -3 46 1 97 82
0000e0 d3 92 4b 4a 7f 5f fe 46 71 63 b9 1f 4e 52 f4 e4
       -45 -110 75 74 127 95 -2 70 113 99 -71 31 78 82 -12 -28
0000f0 f7 df 08 5e 11 fe fe 01 57 0e e9 0b 02 03 01 f7
       -9 -33 8 94 17 -2 -2 1 87 14 -23 11 2 3 1 -9

model/quant_conv2d_18/Conv2D;model/quant_conv2d_18/LastValueQuant/FakeQuantWithMinMaxVarsPerChannel i1 [16, 1, 1, 48]
000000 0f 46 1a f6 37 0a f2 e0 ff d3 01 12 a1 03 fc ec
       15 70 26 -10 55 10 -14 -32 -1 -45 1 18 -95 3 -4 -20
000010 ff 1a 0f f4 03 99 f2 f1 0c ec ff ed 2a 04 19 19
       -1 26 15 -12 3 -103 -14 -15 12 -20 -1 -19 42 4 25 25
000020 19 e7 22 07 d2 77 02 fc 81 1d e0 15 1c f6 01 f9
       25 -25 34 7 -46 119 2 -4 -127 29 -32 21 28 -10 1 -7
000030 f2 be de 17 1c 05 e8 f5 29 01 a8 0f bb c1 29 e3
       -14 -66 -34 23 28 5 -24 -11 41 1 -88 15 -69 -63 41 -29
000040 0f 04 f6 ea 23 d1 fa 02 dd d3 2d e5 1c 30 e3 0e
       15 4 -10 -22 35 -47 -6 2 -35 -45 45 -27 28 48 -29 14
000050 2c 08 e5 0b 6b 34 1d 0c 7f 36 1a fe 76 10 d8 df
       44 8 -27 11 107 52 29 12 127 54 26 -2 118 16 -40 -33
000060 f9 0c a0 0e f5 11 14 df 00 7f f0 e3 12 fd 00 13
       -7 12 -96 14 -11 17 20 -33 0 127 -16 -29 18 -3 0 19
000070 fe fa 4d 0a ff 9d 06 f8 07 b3 03 29 ea 09 f8 fe
       -2 -6 77 10 -1 -99 6 -8 7 -77 3 41 -22 9 -8 -2
000080 e8 e8 4e f9 12 18 12 02 02 e8 01 eb fe 0a 16 0f
       -24 -24 78 -7 18 24 18 2 2 -24 1 -21 -2 10 22 15
000090 05 3a fd 05 0c d8 ec 0b f4 02 10 f0 ed 0a e7 f8
       5 58 -3 5 12 -40 -20 11 -12 2 16 -16 -19 10 -25 -8
0000a0 d0 03 20 dc fc 28 e8 c2 ff 22 f7 ca df 03 0f f2
       -48 3 32 -36 -4 40 -24 -62 -1 34 -9 -54 -33 3 15 -14
0000b0 7f f1 f6 ea 16 1b fb e5 35 16 2f 09 0d 0f fc f6
       127 -15 -10 -22 22 27 -5 -27 53 22 47 9 13 15 -4 -10
0000c0 ef 06 08 ef 06 e8 dc 06 01 16 19 ec f6 f2 17 aa
       -17 6 8 -17 6 -24 -36 6 1 22 25 -20 -10 -14 23 -86
0000d0 14 d1 09 f1 0d 2d f7 04 e3 e1 0b 96 dd 0b 32 0a
       20 -47 9 -15 13 45 -9 4 -29 -31 11 -106 -35 11 50 10
0000e0 fb f6 3c 0a 14 ee e4 05 c8 e8 25 eb 81 16 db d9
       -5 -10 60 10 20 -18 -28 5 -56 -24 37 -21 -127 22 -37 -39
0000f0 03 bb ce f2 d9 31 2e fa 3a cb e7 06 21 0f ff 28
       3 -69 -50 -14 -39 49 46 -6 58 -53 -25 6 33 15 -1 40

model/quant_conv2d_19/Conv2D;model/quant_conv2d_19/LastValueQuant/FakeQuantWithMinMaxVarsPerChannel i1 [96, 1, 1, 16]
000000 ee 25 da 45 1d 04 1d 03 4f 06 31 0d 81 05 49 0a
       -18 37 -38 69 29 4 29 3 79 6 49 13 -127 5 73 10
000010 9b 29 98 1b 81 bb 2f 1a f0 05 38 f1 30 4a 0a 93
       -101 41 -104 27 -127 -69 47 26 -16 5 56 -15 48 74 10 -109
000020 f7 55 7f 47 bf 2c ff fd fa f0 42 b3 0a a7 dd e4
       -9 85 127 71 -65 44 -1 -3 -6 -16 66 -77 10 -89 -35 -28
000030 e3 f3 46 ef a1 dd 78 ed ac b6 2a 7f e2 38 2a 24
       -29 -13 70 -17 -95 -35 120 -19 -84 -74 42 127 -30 56 42 36
000040 7f 36 05 ef d4 e6 ff 4f d1 4f 05 12 f2 4e ee 53
       127 54 5 -17 -44 -26 -1 79 -47 79 5 18 -14 78 -18 83
000050 d9 23 ea c9 41 19 12 f3 ef 98 e6 0a 23 c9 d1 7f
       -39 35 -22 -55 65 25 18 -13 -17 -104 -26 10 35 -55 -47 127
000060 7f 27 db 1b d9 06 1a bb 47 db bc ad 56 10 cf a8
       127 39 -37 27 -39 6 26 -69 71 -37 -68 -83 86 16 -49 -88
000070 20 04 fa 1c 1b cb 06 00 f3 7f 5f 2f e3 e7 17 3e
       32 4 -6 28 27 -53 6 0 -13 127 95 47 -29 -25 23 62
000080 09 13 0b e4 ea 16 e8 15 23 04 e8 d1 7f 15 bd ed
       9 19 11 -28 -22 22 -24 21 35 4 -24 -47 127 21 -67 -19
000090 fa f4 06 13 e9 df de 1e 81 ee ef 0f f7 fc ee eb
       -6 -12 6 19 -23 -33 -34 30 -127 -18 -17 15 -9 -4 -18 -21
0000a0 b6 d1 3f d6 a0 3d d9 08 2b f0 4e 2b 99 7f ba dd
       -74 -47 63 -42 -96 61 -39 8 43 -16 78 43 -103 127 -70 -35
0000b0 36 6c 7f 0d cb 32 c9 4a de fa f9 fc e0 97 07 d4
       54 108 127 13 -53 50 -55 74 -34 -6 -7 -4 -32 -105 7 -44
0000c0 23 be 0a 18 49 db e6 0e 1a 07 bc d9 81 d9 59 0d
       35 -66 10 24 73 -37 -26 14 26 7 -68 -39 -127 -39 89 13
0000d0 2c 81 23 02 c4 25 ca 48 f2 a9 45 2a ea 06 67 cb
       44 -127 35 2 -60 37 -54 72 -14 -87 69 42 -22 6 103 -53
0000e0 81 1b 1a ec 09 ef 48 91 2e ee d9 b9 fe 07 82 f5
       -127 27 26 -20 9 -17 72 -111 46 -18 -39 -71 -2 7 -126 -11
0000f0 0d 81 d3 ec 19 f9 63 f4 b7 bd 50 27 d2 4d 05 d9
       13 -127 -45 -20 25 -7 99 -12 -73 -67 80 39 -46 77 5 -39

model/quant_conv_dw_10/depthwise;model/quant_conv_dw_10/LastValueQuant/FakeQuantWithMinMaxVarsPerChannel i1 [1, 3, 3, 96]
000000 f8 10 06 16 0a fb 0a 24 1a 0a 0e 17 ef ee 00 f0
       -8 16 6 22 10 -5 10 36 26 10 14 23 -17 -18 0 -16
000010 f7 16 f0 04 08 03 f3 f7 03 0b 1b 03 06 f5 1f 00
       -9 22 -16 4 8 3 -13 -9 3 11 27 3 6 -11 31 0
000020 f4 10 1c 03 08 e4 0f ce f7 f2 20 18 f8 0f ed 26
       -12 16 28 3 8 -28 15 -50 -9 -14 32 24 -8 15 -19 38
000030 e7 fd 17 0e 30 47 11 f0 11 10 f5 0b 18 f2 fb fa
       -25 -3 23 14 48 71 17 -16 17 16 -11 11 24 -14 -5 -6
000040 f9 ef e5 13 ff 06 16 ea f9 12 df b8 d0 fe 0c 08
       -7 -17 -27 19 -1 6 22 -22 -7 18 -33 -72 -48 -2 12 8
000050 03 f8 e9 07 02 ec 15 ee ef ed 0d 06 e9 eb fd 26
       3 -8 -23 7 2 -20 21 -18 -17 -19 13 6 -23 -21 -3 38
000060 0c df e1 09 2d 06 0d 35 d0 f1 eb 47 e8 cf f0 f5
       12 -33 -31 9 45 6 13 53 -48 -15 -21 71 -24 -49 -16 -11
000070 06 02 ee 0f 2c f2 ec f8 28 ea 32 42 01 dc 12 ea
       6 2 -18 15 44 -14 -20 -8 40 -22 50 66 1 -36 18 -22
000080 4f e5 33 eb fe a9 01 47 4b 2f 21 2c 2c e1 f2 50
       79 -27 51 -21 -2 -87 1 71 75 47 33 44 44 -31 -14 80
000090 08 47 3b 38 ec da 37 ea 26 f3 3e cc 07 cc ff 07
       8 71 59 56 -20 -38 55 -22 38 -13 62 -52 7 -52 -1 7
0000a0 0a 24 c0 27 16 3e 09 fb ed fc dc 41 1a 21 2d f7
       10 36 -64 39 22 62 9 -5 -19 -4 -36 65 26 33 45 -9
0000b0 f7 39 12 c8 10 33 ed b1 b3 9b f9 1b f7 25 34 cb
       -9 57 18 -56 16 51 -19 -79 -77 -101 -7 27 -9 37 52 -53
0000c0 ed 1a 0a 14 ff 00 12 38 eb 1b 04 26 f5 f1 fa 02
       -19 26 10 20 -1 0 18 56 -21 27 4 38 -11 -15 -6 2
0000d0 04 eb 12 1a f0 08 f3 09 10 08 df ed 18 d8 24 12
       4 -21 18 26 -16 8 -13 9 16 8 -33 -19 24 -40 36 18
0000e0 fc 06 34 0a 05 30 06 d4 c6 08 1c 1a b9 08 05 23
       -4 6 52 10 5 48 6 -44 -58 8 28 26 -71 8 5 35
0000f0 e7 03 13 15 12 df 17 ed 1a fc ee 1f 13 fa 05 02
       -25 3 19 21 18 -33 23 -19 26 -4 -18 31 19 -6 5 2

model/quant_conv2d_20/Conv2D;model/quant_conv2d_20/LastValueQuant/FakeQuantWithMinMaxVarsPerChannel i1 [16, 1, 1, 96]
000000 eb ef e5 23 e5 db 3a 45 1b e2 1e eb e2 f3 53 1a
       -21 -17 -27 35 -27 -37 58 69 27 -30 30 -21 -30 -13 83 26
000010 dc 2b 0c ab 02 ea 14 fd ff e2 37 f2 f1 f6 e6 2c
       -36 43 12 -85 2 -22 20 -3 -1 -30 55 -14 -15 -10 -26 44
000020 ef ff 04 dc c2 b3 e0 f5 df 05 13 05 f8 15 81 d1
       -17 -1 4 -36 -62 -77 -32 -11 -33 5 19 5 -8 21 -127 -47
000030 48 19 18 ed 04 fc 26 15 2a 2e fb e9 21 2b 25 cb
       72 25 24 -19 4 -4 38 21 42 46 -5 -23 33 43 37 -53
000040 b4 18 d7 da de 1b df f1 bb 05 07 e5 36 6b db 13
       -76 24 -41 -38 -34 27 -33 -15 -69 5 7 -27 54 107 -37 19
000050 03 0e 03 2f df fa 2f 37 f8 d2 e7 11 1c ff 04 d5
       3 14 3 47 -33 -6 47 55 -8 -46 -25 17 28 -1 4 -43
000060 10 37 46 9e e8 a5 f5 0a 0d fe c5 03 ae 5b 21 20
       16 55 70 -98 -24 -91 -11 10 13 -2 -59 3 -82 91 33 32
000070 0b eb fd 02 42 33 c9 37 fa e5 4c 28 38 f5 d8 2b
       11 -21 -3 2 66 51 -55 55 -6 -27 76 40 56 -11 -40 43
000080 2c 15 07 f5 cc 0d 05 0e 15 c7 d2 09 ea fb ce 01
       44 21 7 -11 -52 13 5 14 21 -57 -46 9 -22 -5 -50 1
000090 9e e3 d3 a6 f1 34 cd 97 a8 98 30 f2 3c 07 0b c3
       -98 -29 -45 -90 -15 52 -51 -105 -88 -104 48 -14 60 7 11 -61
0000a0 54 1b ed a7 f8 d0 cd f6 4c 2a 0c 14 20 19 1b 18
       84 27 -19 -89 -8 -48 -51 -10 76 42 12 20 32 25 27 24
0000b0 4f a7 0d f9 17 01 0e bf e5 5d 81 05 4a dd a9 2a
       79 -89 13 -7 23 1 14 -65 -27 93 -127 5 74 -35 -87 42
0000c0 c4 32 3e 1e d0 fc e5 fa 1d 05 06 1c 36 b2 11 e2
       -60 50 62 30 -48 -4 -27 -6 29 5 6 28 54 -78 17 -30
0000d0 e5 aa 1f 00 e2 46 23 e3 d7 d9 c9 e7 04 b2 e3 45
       -27 -86 31 0 -30 70 35 -29 -41 -39 -55 -25 4 -78 -29 69
0000e0 24 23 18 bf bd 28 b1 2c 0e d2 fc 21 d8 f5 72 ea
       36 35 24 -65 -67 40 -79 44 14 -46 -4 33 -40 -11 114 -22
0000f0 1d 37 f2 4e cd e1 f2 07 fd da cf 2e 17 de ee b6
       29 55 -14 78 -51 -31 -14 7 -3 -38 -49 46 23 -34 -18 -74

model/quant_conv2d_21/Conv2D;model/quant_conv2d_21/LastValueQuant/FakeQuantWithMinMaxVarsPerChannel i1 [96, 1, 1, 16]
000000 24 40 16 ef fa 1a e1 9d ed 0a fd 81 0b 4b 1b 11
       36 64 22 -17 -6 26 -31 -99 -19 10 -3 -127 11 75 27 17
000010 0f 2c 09 08 ea 01 f3 81 e6 16 fc 31 05 ff 1b 23
       15 44 9 8 -22 1 -13 -127 -26 22 -4 49 5 -1 27 35
000020 7f 47 ae 3c ed d2 25 07 16 e6 0d b0 1e ff ce d3
       127 71 -82 60 -19 -46 37 7 22 -26 13 -80 30 -1 -50 -45
000030 cb 83 e0 d5 fe 81 55 cb 34 26 08 0a aa 6d c5 0e
       -53 -125 -32 -43 -2 -127 85 -53 52 38 8 10 -86 109 -59 14
000040 ff 6a ab 5e 16 86 9e 34 e9 cb c6 30 81 e6 54 f3
       -1 106 -85 94 22 -122 -98 52 -23 -53 -58 48 -127 -26 84 -13
000050 14 7f 4d 13 42 bd 31 a1 c1 dc 56 4b 49 29 ea 32
       20 127 77 19 66 -67 49 -95 -63 -36 86 75 73 41 -22 50
000060 fb ce a3 9f e5 0b fa 1b 81 2d cf 43 e1 43 f2 fe
       -5 -50 -93 -97 -27 11 -6 27 -127 45 -49 67 -31 67 -14 -2
000070 0c 15 f2 db 2f 7f 92 1e f7 05 ec 2f 1d f8 12 cc
       12 21 -14 -37 47 127 -110 30 -9 5 -20 47 29 -8 18 -52
000080 10 0b 7f 1a 9c 15 23 14 e7 11 19 f2 ca e3 01 d1
       16 11 127 26 -100 21 35 20 -25 17 25 -14 -54 -29 1 -47
000090 02 14 7f be e8 e6 29 e7 c8 17 e8 c7 1b 8c 05 01
       2 20 127 -66 -24 -26 41 -25 -56 23 -24 -57 27 -116 5 1
0000a0 b4 85 d5 5b a5 69 49 ee 81 bd df e4 25 27 0b 2b
       -76 -123 -43 91 -91 105 73 -18 -127 -67 -33 -28 37 39 11 43
0000b0 4a 81 15 10 0f 2c db 16 22 16 e9 9e f2 cb ff 20
       74 -127 21 16 15 44 -37 22 34 22 -23 -98 -14 -53 -1 32
0000c0 7f 0a ef 0b 47 38 ca 12 24 08 d1 1c ec 7f c5 c2
       127 10 -17 11 71 56 -54 18 36 8 -47 28 -20 127 -59 -62
0000d0 ef df 11 e8 db 1f 00 e5 f8 09 2b f1 7f 09 c3 0a
       -17 -33 17 -24 -37 31 0 -27 -8 9 43 -15 127 9 -61 10
0000e0 f1 7f f6 53 29 bd 28 2b d2 d5 d8 31 8c 24 ff 26
       -15 127 -10 83 41 -67 40 43 -46 -43 -40 49 -116 36 -1 38
0000f0 81 3d 4a d3 d6 ec e2 e4 e8 e5 ff 1e c3 ca f9 d9
       -127 61 74 -45 -42 -20 -30 -28 -24 -27 -1 30 -61 -54 -7 -39

model/quant_conv_dw_11/depthwise;model/quant_conv_dw_11/LastValueQuant/FakeQuantWithMinMaxVarsPerChannel i1 [1, 3, 3, 96]
000000 e6 d0 2d bd 03 0b 02 0f 1a 0a 19 f7 20 f2 17 04
       -26 -48 45 -67 3 11 2 15 26 10 25 -9 32 -14 23 4
000010 1e 00 0f f4 ff dd cf 02 23 f9 fd e8 ff 00 fc ef
       30 0 15 -12 -1 -35 -49 2 35 -7 -3 -24 -1 0 -4 -17
000020 03 f8 01 1f fc e9 21 e6 f2 09 fd ef 10 fe d1 0e
       3 -8 1 31 -4 -23 33 -26 -14 9 -3 -17 16 -2 -47 14
000030 1d 2d fe f8 10 f6 f5 f7 f3 ea ee 04 e2 18 30 f6
       29 45 -2 -8 16 -10 -11 -9 -13 -22 -18 4 -30 24 48 -10
000040 ec 14 f5 0d 13 e4 e7 f4 23 31 ef 15 29 0d 00 25
       -20 20 -11 13 19 -28 -25 -12 35 49 -17 21 41 13 0 37
000050 00 01 e6 f4 30 e8 fd ee 0f fc e4 cf 0d f1 1c cc
       0 1 -26 -12 48 -24 -3 -18 15 -4 -28 -49 13 -15 28 -52
000060 b5 25 2c fa 31 1c 00 09 d8 3b 1c e1 bf 0d 70 d4
       -75 37 44 -6 49 28 0 9 -40 59 28 -31 -65 13 112 -44
000070 03 44 0e b9 d6 c4 cc 17 3b fb f2 3d 2e 07 28 e2
       3 68 14 -71 -42 -60 -52 23 59 -5 -14 61 46 7 40 -30
000080 2c dc 26 1e ef c8 ef d6 ed a6 e0 cc 3a cd f5 b0
       44 -36 38 30 -17 -56 -17 -42 -19 -90 -32 -52 58 -51 -11 -80
000090 58 05 06 e4 02 24 e0 8a 00 04 ec 0c d6 ad 41 1e
       88 5 6 -28 2 36 -32 -118 0 4 -20 12 -42 -83 65 30
0000a0 10 61 10 2c 2e 1b eb e9 c2 27 e5 07 dc fe e2 09
       16 97 16 44 46 27 -21 -23 -62 39 -27 7 -36 -2 -30 9
0000b0 c6 fc ca 29 08 bb 24 0e 30 36 a4 cb dd e8 22 cd
       -58 -4 -54 41 8 -69 36 14 48 54 -92 -53 -35 -24 34 -51
0000c0 04 16 2f 0f 09 12 e7 d9 d9 14 e1 f2 d9 06 0d ce
       4 22 47 15 9 18 -25 -39 -39 20 -31 -14 -39 6 13 -50
0000d0 fb 0a 13 f2 d2 da ff cd 25 f7 17 d5 f0 f6 0d ee
       -5 10 19 -14 -46 -38 -1 -51 37 -9 23 -43 -16 -10 13 -18
0000e0 05 fc 47 f8 09 d7 14 ed 23 0d 08 e3 fb 12 1e 2b
       5 -4 71 -8 9 -41 20 -19 35 13 8 -29 -5 18 30 43
0000f0 23 f0 0c d0 d6 fe f1 fe dc 25 fe 09 1d 0d fb f4
       35 -16 12 -48 -42 -2 -15 -2 -36 37 -2 9 29 13 -5 -12
